…
Training finished.
Restored best model from early stopping.
Best validation loss 5.3891 at epoch 30
Model saved to: /workspace/comp0197-experiments/runs/baseline_ablation_sales_yen_hierarchy_embedded_seq2seq_search/models/hierarchical_gru_det/hierarchical_gru_det_model.pt
History saved to: /workspace/comp0197-experiments/runs/baseline_ablation_sales_yen_hierarchy_embedded_seq2seq_search/models/hierarchical_gru_det/hierarchical_gru_det_train_history.json

hierarchical_gru_det training completed in 19973.65 seconds

hierarchical_gru_det model:
HierarchicalGRU(
  (embedder): _HierarchyEmbedder(
    (state_emb): Embedding(3, 6)
    (store_emb): Embedding(10, 6)
    (cat_emb): Embedding(3, 6)
    (dept_emb): Embedding(7, 6)
  )
  (gru): GRU(34, 256, num_layers=2, batch_first=True, dropout=0.0705658475838806)
  (fc): Linear(in_features=256, out_features=28, bias=True)
)

hierarchical_gru_det final epoch metrics:
{'epoch': 38, 'train_loss': 5.889825820922852, 'validation_loss': 5.516023688239714, 'validation_accuracy': None, 'val_rmse': 2.3486216068267822, 'val_mae': 1.1852713823318481, 'val_mape': 54.94232177734375, 'val_r2': 0.5600146055221558}

  [DONE] hierarchical_gru_det — artefacts in /workspace/comp0197-experiments/runs/baseline_ablation_sales_yen_hierarchy_embedded_seq2seq_search/models/hierarchical_gru_det
…
Restored best model from early stopping.
Best validation loss 1.8099 at epoch 8
Model saved to: /workspace/comp0197-experiments/runs/baseline_ablation_sales_yen_hierarchy_embedded_seq2seq_search/models/hierarchical_gru_prob/hierarchical_gru_prob_model.pt
History saved to: /workspace/comp0197-experiments/runs/baseline_ablation_sales_yen_hierarchy_embedded_seq2seq_search/models/hierarchical_gru_prob/hierarchical_gru_prob_train_history.json

hierarchical_gru_prob training completed in 10276.97 seconds

hierarchical_gru_prob model:
HierarchicalProbGRU(
  (embedder): _HierarchyEmbedder(
    (state_emb): Embedding(3, 8)
    (store_emb): Embedding(10, 8)
    (cat_emb): Embedding(3, 8)
    (dept_emb): Embedding(7, 8)
  )
  (gru): GRU(42, 224, num_layers=2, batch_first=True, dropout=0.057102744979295975)
  (mu_head): Linear(in_features=224, out_features=28, bias=True)
  (sigma_head): Linear(in_features=224, out_features=28, bias=True)
  (softplus): Softplus(beta=1.0, threshold=20.0)
)

hierarchical_gru_prob final epoch metrics:
{'epoch': 16, 'train_loss': 1.6148970127105713, 'validation_loss': 1.8553178960138157, 'validation_accuracy': None, 'val_rmse': 2.834972381591797, 'val_mae': 1.2135134935379028, 'val_mape': 72.77278304100037, 'val_r2': 0.3589235544204712}

  [DONE] hierarchical_gru_prob — artefacts in /workspace/comp0197-experiments/runs/baseline_ablation_sales_yen_hierarchy_embedded_seq2seq_search/models/hierarchical_gru_prob
…
Restored best model from early stopping.
Best validation loss 59.2175 at epoch 60
Model saved to: /workspace/comp0197-experiments/runs/baseline_ablation_sales_yen_hierarchy_embedded_seq2seq_search/models/hierarchical_quantile_gru/hierarchical_quantile_gru_model.pt
History saved to: /workspace/comp0197-experiments/runs/baseline_ablation_sales_yen_hierarchy_embedded_seq2seq_search/models/hierarchical_quantile_gru/hierarchical_quantile_gru_train_history.json

hierarchical_quantile_gru training completed in 38280.36 seconds

hierarchical_quantile_gru model:
HierarchicalQuantileGRU(
  (embedder): _HierarchyEmbedder(
    (state_emb): Embedding(3, 6)
    (store_emb): Embedding(10, 6)
    (cat_emb): Embedding(3, 6)
    (dept_emb): Embedding(7, 6)
  )
  (gru): GRU(34, 256, num_layers=2, batch_first=True, dropout=0.0705658475838806)
  (fc): Linear(in_features=256, out_features=252, bias=True)
)

hierarchical_quantile_gru final epoch metrics:
{'epoch': 60, 'train_loss': 49.36853790283203, 'validation_loss': 59.21747309506817, 'validation_accuracy': None, 'val_rmse': 2.394810199737549, 'val_mae': 0.9203360080718994, 'val_mape': 68.08528900146484, 'val_r2': 0.5425386428833008}

  [DONE] hierarchical_quantile_gru — artefacts in /workspace/comp0197-experiments/runs/baseline_ablation_sales_yen_hierarchy_embedded_seq2seq_search/models/hierarchical_quantile_gru
…
