{
    "model": "gru_nb_prob",
    "architecture": "ProbGRU_NB(\n  (input_proj): Sequential(\n    (0): Linear(in_features=1, out_features=360, bias=True)\n    (1): GELU(approximate='none')\n    (2): LayerNorm((360,), eps=1e-05, elementwise_affine=True)\n  )\n  (gru): GRU(360, 360, num_layers=2, batch_first=True, dropout=0.2232056435770286)\n  (norm): LayerNorm((360,), eps=1e-05, elementwise_affine=True)\n  (mu_decoder): HorizonConditionedHead(\n    (attn): MultiheadAttention(\n      (out_proj): NonDynamicallyQuantizableLinear(in_features=360, out_features=360, bias=True)\n    )\n    (norm): LayerNorm((360,), eps=1e-05, elementwise_affine=True)\n    (res): ResidualForecastHead(\n      (block): Sequential(\n        (0): Linear(in_features=360, out_features=360, bias=True)\n        (1): GELU(approximate='none')\n        (2): Dropout(p=0.2232056435770286, inplace=False)\n        (3): Linear(in_features=360, out_features=360, bias=True)\n      )\n      (norm): LayerNorm((360,), eps=1e-05, elementwise_affine=True)\n    )\n    (out): Linear(in_features=360, out_features=1, bias=True)\n  )\n  (alpha_decoder): HorizonConditionedHead(\n    (attn): MultiheadAttention(\n      (out_proj): NonDynamicallyQuantizableLinear(in_features=360, out_features=360, bias=True)\n    )\n    (norm): LayerNorm((360,), eps=1e-05, elementwise_affine=True)\n    (res): ResidualForecastHead(\n      (block): Sequential(\n        (0): Linear(in_features=360, out_features=360, bias=True)\n        (1): GELU(approximate='none')\n        (2): Dropout(p=0.2232056435770286, inplace=False)\n        (3): Linear(in_features=360, out_features=360, bias=True)\n      )\n      (norm): LayerNorm((360,), eps=1e-05, elementwise_affine=True)\n    )\n    (out): Linear(in_features=360, out_features=1, bias=True)\n  )\n  (softplus): Softplus(beta=1.0, threshold=20.0)\n)",
    "stage": "train",
    "timestamp": "2026-03-25 12:24:54",
    "config": {
        "seed": 42,
        "epochs": 60,
        "model_type": "gru_nb",
        "probabilistic": true,
        "hidden": 365.5115849078705,
        "layers": 2.7234138006215547,
        "dropout": 0.2232056435770286,
…
