{
    "model": "lstm_prob",
    "architecture": "ProbLSTM(\n  (input_proj): Sequential(\n    (0): Linear(in_features=6, out_features=256, bias=True)\n    (1): GELU(approximate='none')\n    (2): LayerNorm((256,), eps=1e-05, elementwise_affine=True)\n  )\n  (lstm): LSTM(256, 256, num_layers=2, batch_first=True, dropout=0.15)\n  (norm): LayerNorm((256,), eps=1e-05, elementwise_affine=True)\n  (mu_decoder): HorizonConditionedHead(\n    (attn): MultiheadAttention(\n      (out_proj): NonDynamicallyQuantizableLinear(in_features=256, out_features=256, bias=True)\n    )\n    (norm): LayerNorm((256,), eps=1e-05, elementwise_affine=True)\n    (res): ResidualForecastHead(\n      (block): Sequential(\n        (0): Linear(in_features=256, out_features=256, bias=True)\n        (1): GELU(approximate='none')\n        (2): Dropout(p=0.15, inplace=False)\n        (3): Linear(in_features=256, out_features=256, bias=True)\n      )\n      (norm): LayerNorm((256,), eps=1e-05, elementwise_affine=True)\n    )\n    (out): Linear(in_features=256, out_features=1, bias=True)\n  )\n  (sigma_decoder): HorizonConditionedHead(\n    (attn): MultiheadAttention(\n      (out_proj): NonDynamicallyQuantizableLinear(in_features=256, out_features=256, bias=True)\n    )\n    (norm): LayerNorm((256,), eps=1e-05, elementwise_affine=True)\n    (res): ResidualForecastHead(\n      (block): Sequential(\n        (0): Linear(in_features=256, out_features=256, bias=True)\n        (1): GELU(approximate='none')\n        (2): Dropout(p=0.15, inplace=False)\n        (3): Linear(in_features=256, out_features=256, bias=True)\n      )\n      (norm): LayerNorm((256,), eps=1e-05, elementwise_affine=True)\n    )\n    (out): Linear(in_features=256, out_features=1, bias=True)\n  )\n  (softplus): Softplus(beta=1.0, threshold=20.0)\n)",
    "stage": "train",
    "timestamp": "2026-03-25 19:30:56",
    "config": {
        "seed": 42,
        "epochs": 60,
        "model_type": "lstm",
        "probabilistic": true,
        "hidden": 256,
        "layers": 2,
        "dropout": 0.15,
        "horizon": 28,
        "d_model": 256,
…
