{
    "model": "transformer_prob",
    "architecture": "ProbSalesTransformer(\n  (input_proj): Sequential(\n    (0): Linear(in_features=1, out_features=152, bias=True)\n    (1): GELU(approximate='none')\n    (2): LayerNorm((152,), eps=1e-05, elementwise_affine=True)\n  )\n  (pos_enc): PositionalEncoding(\n    (dropout): Dropout(p=0.07525035735243228, inplace=False)\n  )\n  (blocks): ModuleList(\n    (0-1): 2 x TransformerBlock(\n      (attn): MultiheadAttention(\n        (out_proj): NonDynamicallyQuantizableLinear(in_features=152, out_features=152, bias=True)\n      )\n      (norm1): LayerNorm((152,), eps=1e-05, elementwise_affine=True)\n      (norm2): LayerNorm((152,), eps=1e-05, elementwise_affine=True)\n      (dropout1): Dropout(p=0.07525035735243228, inplace=False)\n      (dropout2): Dropout(p=0.07525035735243228, inplace=False)\n      (ff): Sequential(\n        (0): Linear(in_features=152, out_features=469, bias=True)\n        (1): GELU(approximate='none')\n        (2): Dropout(p=0.07525035735243228, inplace=False)\n        (3): Linear(in_features=469, out_features=152, bias=True)\n      )\n    )\n  )\n  (norm): LayerNorm((152,), eps=1e-05, elementwise_affine=True)\n  (mu_decoder): HorizonConditionedHead(\n    (attn): MultiheadAttention(\n      (out_proj): NonDynamicallyQuantizableLinear(in_features=152, out_features=152, bias=True)\n    )\n    (norm): LayerNorm((152,), eps=1e-05, elementwise_affine=True)\n    (res): ResidualForecastHead(\n      (block): Sequential(\n        (0): Linear(in_features=152, out_features=152, bias=True)\n        (1): GELU(approximate='none')\n        (2): Dropout(p=0.07525035735243228, inplace=False)\n        (3): Linear(in_features=152, out_features=152, bias=True)\n      )\n      (norm): LayerNorm((152,), eps=1e-05, elementwise_affine=True)\n    )\n    (out): Linear(in_features=152, out_features=1, bias=True)\n  )\n  (sigma_decoder): HorizonConditionedHead(\n    (attn): MultiheadAttention(\n      (out_proj): NonDynamicallyQuantizableLinear(in_features=152, out_features=152, bias=True)\n    )\n    (norm): LayerNorm((152,), eps=1e-05, elementwise_affine=True)\n    (res): ResidualForecastHead(\n      (block): Sequential(\n        (0): Linear(in_features=152, out_features=152, bias=True)\n        (1): GELU(approximate='none')\n        (2): Dropout(p=0.07525035735243228, inplace=False)\n        (3): Linear(in_features=152, out_features=152, bias=True)\n      )\n      (norm): LayerNorm((152,), eps=1e-05, elementwise_affine=True)\n    )\n    (out): Linear(in_features=152, out_features=1, bias=True)\n  )\n  (softplus): Softplus(beta=1.0, threshold=20.0)\n)",
    "stage": "train",
    "timestamp": "2026-03-25 11:44:51",
    "config": {
        "seed": 42,
        "epochs": 60,
        "model_type": "transformer",
        "probabilistic": true,
        "hidden": 256,
        "layers": 2.9311635454441207,
        "dropout": 0.07525035735243228,
        "horizon": 28,
…
