{
    "model": "gru_prob",
    "architecture": "ProbGRU(\n  (input_proj): Sequential(\n    (0): Linear(in_features=1, out_features=432, bias=True)\n    (1): GELU(approximate='none')\n    (2): LayerNorm((432,), eps=1e-05, elementwise_affine=True)\n  )\n  (gru): GRU(432, 432, num_layers=2, batch_first=True, dropout=0.2108684274364102)\n  (norm): LayerNorm((432,), eps=1e-05, elementwise_affine=True)\n  (mu_decoder): HorizonConditionedHead(\n    (attn): MultiheadAttention(\n      (out_proj): NonDynamicallyQuantizableLinear(in_features=432, out_features=432, bias=True)\n    )\n    (norm): LayerNorm((432,), eps=1e-05, elementwise_affine=True)\n    (res): ResidualForecastHead(\n      (block): Sequential(\n        (0): Linear(in_features=432, out_features=432, bias=True)\n        (1): GELU(approximate='none')\n        (2): Dropout(p=0.2108684274364102, inplace=False)\n        (3): Linear(in_features=432, out_features=432, bias=True)\n      )\n      (norm): LayerNorm((432,), eps=1e-05, elementwise_affine=True)\n    )\n    (out): Linear(in_features=432, out_features=1, bias=True)\n  )\n  (sigma_decoder): HorizonConditionedHead(\n    (attn): MultiheadAttention(\n      (out_proj): NonDynamicallyQuantizableLinear(in_features=432, out_features=432, bias=True)\n    )\n    (norm): LayerNorm((432,), eps=1e-05, elementwise_affine=True)\n    (res): ResidualForecastHead(\n      (block): Sequential(\n        (0): Linear(in_features=432, out_features=432, bias=True)\n        (1): GELU(approximate='none')\n        (2): Dropout(p=0.2108684274364102, inplace=False)\n        (3): Linear(in_features=432, out_features=432, bias=True)\n      )\n      (norm): LayerNorm((432,), eps=1e-05, elementwise_affine=True)\n    )\n    (out): Linear(in_features=432, out_features=1, bias=True)\n  )\n  (softplus): Softplus(beta=1.0, threshold=20.0)\n)",
    "stage": "train",
    "timestamp": "2026-03-25 08:23:21",
    "config": {
        "seed": 42,
        "epochs": 60,
        "model_type": "gru",
        "probabilistic": true,
        "hidden": 437.937256937362,
        "layers": 2.4594635733876355,
        "dropout": 0.2108684274364102,
        "horizon": 28,
…
