{
    "model": "gru_nb_direct_prob",
    "architecture": "ProbGRU_NB(\n  (input_proj): Sequential(\n    (0): Linear(in_features=13, out_features=208, bias=True)\n    (1): GELU(approximate='none')\n    (2): LayerNorm((208,), eps=1e-05, elementwise_affine=True)\n  )\n  (gru): GRU(208, 208, num_layers=2, batch_first=True, dropout=0.292829137003348)\n  (norm): LayerNorm((208,), eps=1e-05, elementwise_affine=True)\n  (mu_decoder): HorizonConditionedHead(\n    (attn): MultiheadAttention(\n      (out_proj): NonDynamicallyQuantizableLinear(in_features=208, out_features=208, bias=True)\n    )\n    (norm): LayerNorm((208,), eps=1e-05, elementwise_affine=True)\n    (res): ResidualForecastHead(\n      (block): Sequential(\n        (0): Linear(in_features=208, out_features=208, bias=True)\n        (1): GELU(approximate='none')\n        (2): Dropout(p=0.292829137003348, inplace=False)\n        (3): Linear(in_features=208, out_features=208, bias=True)\n      )\n      (norm): LayerNorm((208,), eps=1e-05, elementwise_affine=True)\n    )\n    (out): Linear(in_features=208, out_features=1, bias=True)\n  )\n  (alpha_decoder): HorizonConditionedHead(\n    (attn): MultiheadAttention(\n      (out_proj): NonDynamicallyQuantizableLinear(in_features=208, out_features=208, bias=True)\n    )\n    (norm): LayerNorm((208,), eps=1e-05, elementwise_affine=True)\n    (res): ResidualForecastHead(\n      (block): Sequential(\n        (0): Linear(in_features=208, out_features=208, bias=True)\n        (1): GELU(approximate='none')\n        (2): Dropout(p=0.292829137003348, inplace=False)\n        (3): Linear(in_features=208, out_features=208, bias=True)\n      )\n      (norm): LayerNorm((208,), eps=1e-05, elementwise_affine=True)\n    )\n    (out): Linear(in_features=208, out_features=1, bias=True)\n  )\n  (softplus): Softplus(beta=1.0, threshold=20.0)\n)",
    "stage": "train",
    "timestamp": "2026-03-24 03:14:51",
    "config": {
        "seed": 42,
        "epochs": 60,
        "model_type": "gru_nb",
        "probabilistic": true,
        "hidden": 212.64919886362753,
        "layers": 2.1785313677518174,
        "dropout": 0.292829137003348,
…
